…
███   | 61/86 [04:09<00:39,  1.58s/it] 73%|███████▎  | 63/86 [04:14<00:37,  1.63s/it] 76%|███████▌  | 65/86 [04:24<00:39,  1.90s/it]100%|██████████| 86/86 [04:24<00:00,  3.08s/it]
Found tracks in dataset: 86
BSRoformer(
  (layers): ModuleList(
    (0-7): 8 x ModuleList(
      (0-1): 2 x Transformer(
        (layers): ModuleList(
          (0): ModuleList(
            (0): Attention(
              (rotary_embed): RotaryEmbedding()
              (attend): Attend(
                (attn_dropout): Dropout(p=0.1, inplace=False)
              )
              (norm): RMSNorm()
              (to_qkv): Linear(in_features=384, out_features=1536, bias=False)
              (to_gates): Linear(in_features=384, out_features=8, bias=True)
              (to_out): Sequential(
                (0): Linear(in_features=512, out_features=384, bias=False)
                (1): Dropout(p=0.1, inplace=False)
              )
            )
            (1): FeedForward(
              (net): Sequential(
                (0): RMSNorm()
                (1): Linear(in_features=384, out_features=1536, bias=True)
                (2): GELU(approximate='none')
                (3): Dropout(p=0.1, inplace=False)
                (4): Linear(in_features=1536, out_features=384, bias=True)
                (5): Dropout(p=0.1, inplace=False)
              )
            )
          )
        )
        (norm): Identity()
      )
    )
  )
  (final_norm): RMSNorm()
  (band_split): BandSplit(
    (to_features): ModuleList(
      (0-23): 24 x Sequential(
        (0): RMSNorm()
        (1): Linear(in_features=8, out_features=384, bias=True)
      )
      (24-35): 12 x Sequential(
        (0): RMSNorm()
        (1): Linear(in_features=16, out_features=384, bias=True)
      )
      (36-43): 8 x Sequential(
        (0): RMSNorm()
        (1): Linear(in_features=48, out_features=384, bias=True)
      )
      (44-51): 8 x Sequential(
        (0): RMSNorm()
        (1): Linear(in_features=96, out_features=384, bias=True)
      )
      (52-59): 8 x Sequential(
        (0): RMSNorm()
        (1): Linear(in_features=192, out_features=384, bias=True)
      )
      (60): Sequential(
        (0): RMSNorm()
        (1): Linear(in_features=512, out_features=384, bias=True)
      )
      (61): Sequential(
        (0): RMSNorm()
        (1): Linear(in_features=516, out_features=384, bias=True)
      )
    )
  )
  (mask_estimators): ModuleList(
    (0-3): 4 x MaskEstimator(
      (to_freqs): ModuleList(
        (0-23): 24 x Sequential(
          (0): Sequential(
            (0): Linear(in_features=384, out_features=768, bias=True)
            (1): Tanh()
            (2): Linear(in_features=768, out_features=16, bias=True)
          )
          (1): GLU(dim=-1)
        )
        (24-35): 12 x Sequential(
          (0): Sequential(
            (0): Linear(in_features=384, out_features=768, bias=True)
            (1): Tanh()
            (2): Linear(in_features=768, out_features=32, bias=True)
          )
          (1): GLU(dim=-1)
        )
        (36-43): 8 x Sequential(
          (0): Sequential(
            (0): Linear(in_features=384, out_features=768, bias=True)
            (1): Tanh()
            (2): Linear(in_features=768, out_features=96, bias=True)
          )
          (1): GLU(dim=-1)
        )
        (44-51): 8 x Sequential(
          (0): Sequential(
            (0): Linear(in_features=384, out_features=768, bias=True)
            (1): Tanh()
            (2): Linear(in_features=768, out_features=192, bias=True)
          )
          (1): GLU(dim=-1)
        )
        (52-59): 8 x Sequential(
          (0): Sequential(
            (0): Linear(in_features=384, out_features=768, bias=True)
            (1): Tanh()
            (2): Linear(in_features=768, out_features=384, bias=True)
          )
          (1): GLU(dim=-1)
        )
        (60): Sequential(
          (0): Sequential(
            (0): Linear(in_features=384, out_features=768, bias=True)
            (1): Tanh()
            (2): Linear(in_features=768, out_features=1024, bias=True)
          )
          (1): GLU(dim=-1)
        )
        (61): Sequential(
          (0): Sequential(
            (0): Linear(in_features=384, out_features=768, bias=True)
            (1): Tanh()
            (2): Linear(in_features=768, out_features=1032, bias=True)
          )
          (1): GLU(dim=-1)
        )
      )
    )
  )
)
Instruments: ['drums', 'bass', 'other', 'vocals']
Metrics for training: ['sdr']. Metric for scheduler: sdr
Patience: 3 Reduce factor: 0.95
Batch size: 1 Grad accum steps: 1 Effective batch size: 1
Dataset type: 1
Optimizer: adam
Train for: 1000 epochs
Train epoch: 0 Learning rate: 1e-05
…
