…
24:27, 19.06s/it] 13%|█▎        | 11/86 [02:53<15:35, 12.48s/it] 17%|█▋        | 15/86 [02:53<07:06,  6.01s/it] 22%|██▏       | 19/86 [02:56<04:10,  3.73s/it] 23%|██▎       | 20/86 [03:32<08:44,  7.95s/it] 26%|██▌       | 22/86 [03:39<07:16,  6.82s/it] 27%|██▋       | 23/86 [03:57<08:57,  8.53s/it] 71%|███████   | 61/86 [04:00<00:23,  1.06it/s] 73%|███████▎  | 63/86 [04:12<00:28,  1.26s/it] 76%|███████▌  | 65/86 [04:19<00:30,  1.44s/it] 85%|████████▍ | 73/86 [04:20<00:13,  1.00s/it]100%|██████████| 86/86 [04:20<00:00,  3.02s/it]
Found tracks in dataset: 86
TFC_TDF_net(
  (first_conv): Conv2d(16, 128, kernel_size=(1, 1), stride=(1, 1), bias=False)
  (encoder_blocks): ModuleList(
    (0): Module(
      (tfc_tdf): TFC_TDF(
        (blocks): ModuleList(
          (0-1): 2 x Module(
            (tfc1): Sequential(
              (0): InstanceNorm2d(128, eps=1e-05, momentum=0.1, affine=True, track_running_stats=False)
              (1): GELU(approximate='none')
              (2): Conv2d(128, 128, kernel_size=(3, 3), stride=(1, 1), padding=(1, 1), bias=False)
            )
            (tdf): Sequential(
              (0): InstanceNorm2d(128, eps=1e-05, momentum=0.1, affine=True, track_running_stats=False)
              (1): GELU(approximate='none')
              (2): Linear(in_features=1024, out_features=256, bias=False)
              (3): InstanceNorm2d(128, eps=1e-05, momentum=0.1, affine=True, track_running_stats=False)
              (4): GELU(approximate='none')
              (5): Linear(in_features=256, out_features=1024, bias=False)
            )
            (tfc2): Sequential(
              (0): InstanceNorm2d(128, eps=1e-05, momentum=0.1, affine=True, track_running_stats=False)
              (1): GELU(approximate='none')
              (2): Conv2d(128, 128, kernel_size=(3, 3), stride=(1, 1), padding=(1, 1), bias=False)
            )
            (shortcut): Conv2d(128, 128, kernel_size=(1, 1), stride=(1, 1), bias=False)
          )
        )
      )
      (downscale): Downscale(
        (conv): Sequential(
          (0): InstanceNorm2d(128, eps=1e-05, momentum=0.1, affine=True, track_running_stats=False)
          (1): GELU(approximate='none')
          (2): Conv2d(128, 256, kernel_size=(2, 2), stride=(2, 2), bias=False)
        )
      )
    )
    (1): Module(
      (tfc_tdf): TFC_TDF(
        (blocks): ModuleList(
          (0-1): 2 x Module(
            (tfc1): Sequential(
              (0): InstanceNorm2d(256, eps=1e-05, momentum=0.1, affine=True, track_running_stats=False)
              (1): GELU(approximate='none')
              (2): Conv2d(256, 256, kernel_size=(3, 3), stride=(1, 1), padding=(1, 1), bias=False)
            )
            (tdf): Sequential(
              (0): InstanceNorm2d(256, eps=1e-05, momentum=0.1, affine=True, track_running_stats=False)
              (1): GELU(approximate='none')
              (2): Linear(in_features=512, out_features=128, bias=False)
              (3): InstanceNorm2d(256, eps=1e-05, momentum=0.1, affine=True, track_running_stats=False)
              (4): GELU(approximate='none')
              (5): Linear(in_features=128, out_features=512, bias=False)
            )
            (tfc2): Sequential(
              (0): InstanceNorm2d(256, eps=1e-05, momentum=0.1, affine=True, track_running_stats=False)
              (1): GELU(approximate='none')
              (2): Conv2d(256, 256, kernel_size=(3, 3), stride=(1, 1), padding=(1, 1), bias=False)
            )
            (shortcut): Conv2d(256, 256, kernel_size=(1, 1), stride=(1, 1), bias=False)
          )
        )
      )
      (downscale): Downscale(
        (conv): Sequential(
          (0): InstanceNorm2d(256, eps=1e-05, momentum=0.1, affine=True, track_running_stats=False)
          (1): GELU(approximate='none')
          (2): Conv2d(256, 384, kernel_size=(2, 2), stride=(2, 2), bias=False)
        )
      )
    )
    (2): Module(
      (tfc_tdf): TFC_TDF(
        (blocks): ModuleList(
          (0-1): 2 x Module(
            (tfc1): Sequential(
              (0): InstanceNorm2d(384, eps=1e-05, momentum=0.1, affine=True, track_running_stats=False)
              (1): GELU(approximate='none')
              (2): Conv2d(384, 384, kernel_size=(3, 3), stride=(1, 1), padding=(1, 1), bias=False)
            )
            (tdf): Sequential(
              (0): InstanceNorm2d(384, eps=1e-05, momentum=0.1, affine=True, track_running_stats=False)
              (1): GELU(approximate='none')
              (2): Linear(in_features=256, out_features=64, bias=False)
              (3): InstanceNorm2d(384, eps=1e-05, momentum=0.1, affine=True, track_running_stats=False)
              (4): GELU(approximate='none')
              (5): Linear(in_features=64, out_features=256, bias=False)
            )
            (tfc2): Sequential(
              (0): InstanceNorm2d(384, eps=1e-05, momentum=0.1, affine=True, track_running_stats=False)
              (1): GELU(approximate='none')
              (2): Conv2d(384, 384, kernel_size=(3, 3), stride=(1, 1), padding=(1, 1), bias=False)
            )
            (shortcut): Conv2d(384, 384, kernel_size=(1, 1), stride=(1, 1), bias=False)
          )
        )
      )
      (downscale): Downscale(
        (conv): Sequential(
          (0): InstanceNorm2d(384, eps=1e-05, momentum=0.1, affine=True, track_running_stats=False)
          (1): GELU(approximate='none')
          (2): Conv2d(384, 512, kernel_size=(2, 2), stride=(2, 2), bias=False)
        )
      )
    )
    (3): Module(
      (tfc_tdf): TFC_TDF(
        (blocks): ModuleList(
          (0-1): 2 x Module(
            (tfc1): Sequential(
              (0): InstanceNorm2d(512, eps=1e-05, momentum=0.1, affine=True, track_running_stats=False)
              (1): GELU(approximate='none')
              (2): Conv2d(512, 512, kernel_size=(3, 3), stride=(1, 1), padding=(1, 1), bias=False)
            )
            (tdf): Sequential(
              (0): InstanceNorm2d(512, eps=1e-05, momentum=0.1, affine=True, track_running_stats=False)
              (1): GELU(approximate='none')
              (2): Linear(in_features=128, out_features=32, bias=False)
              (3): InstanceNorm2d(512, eps=1e-05, momentum=0.1, affine=True, track_running_stats=False)
              (4): GELU(approximate='none')
              (5): Linear(in_features=32, out_features=128, bias=False)
            )
            (tfc2): Sequential(
              (0): InstanceNorm2d(512, eps=1e-05, momentum=0.1, affine=True, track_running_stats=False)
              (1): GELU(approximate='none')
              (2): Conv2d(512, 512, kernel_size=(3, 3), stride=(1, 1), padding=(1, 1), bias=False)
            )
            (shortcut): Conv2d(512, 512, kernel_size=(1, 1), stride=(1, 1), bias=False)
          )
        )
      )
      (downscale): Downscale(
        (conv): Sequential(
          (0): InstanceNorm2d(512, eps=1e-05, momentum=0.1, affine=True, track_running_stats=False)
          (1): GELU(approximate='none')
          (2): Conv2d(512, 640, kernel_size=(2, 2), stride=(2, 2), bias=False)
        )
      )
    )
    (4): Module(
      (tfc_tdf): TFC_TDF(
        (blocks): ModuleList(
          (0-1): 2 x Module(
            (tfc1): Sequential(
              (0): InstanceNorm2d(640, eps=1e-05, momentum=0.1, affine=True, track_running_stats=False)
              (1): GELU(approximate='none')
              (2): Conv2d(640, 640, kernel_size=(3, 3), stride=(1, 1), padding=(1, 1), bias=False)
            )
            (tdf): Sequential(
              (0): InstanceNorm2d(640, eps=1e-05, momentum=0.1, affine=True, track_running_stats=False)
              (1): GELU(approximate='none')
              (2): Linear(in_features=64, out_features=16, bias=False)
              (3): InstanceNorm2d(640, eps=1e-05, momentum=0.1, affine=True, track_running_stats=False)
              (4): GELU(approximate='none')
              (5): Linear(in_features=16, out_features=64, bias=False)
            )
            (tfc2): Sequential(
              (0): InstanceNorm2d(640, eps=1e-05, momentum=0.1, affine=True, track_running_stats=False)
              (1): GELU(approximate='none')
              (2): Conv2d(640, 640, kernel_size=(3, 3), stride=(1, 1), padding=(1, 1), bias=False)
            )
            (shortcut): Conv2d(640, 640, kernel_size=(1, 1), stride=(1, 1), bias=False)
          )
        )
      )
      (downscale): Downscale(
        (conv): Sequential(
          (0): InstanceNorm2d(640, eps=1e-05, momentum=0.1, affine=True, track_running_stats=False)
          (1): GELU(approximate='none')
          (2): Conv2d(640, 768, kernel_size=(2, 2), stride=(2, 2), bias=False)
        )
      )
    )
  )
  (bottleneck_block): TFC_TDF(
    (blocks): ModuleList(
      (0-1): 2 x Module(
        (tfc1): Sequential(
          (0): InstanceNorm2d(768, eps=1e-05, momentum=0.1, affine=True, track_running_stats=False)
          (1): GELU(approximate='none')
          (2): Conv2d(768, 768, kernel_size=(3, 3), stride=(1, 1), padding=(1, 1), bias=False)
        )
        (tdf): Sequential(
          (0): InstanceNorm2d(768, eps=1e-05, momentum=0.1, affine=True, track_running_stats=False)
          (1): GELU(approximate='none')
          (2): Linear(in_features=32, out_features=8, bias=False)
          (3): InstanceNorm2d(768, eps=1e-05, momentum=0.1, affine=True, track_running_stats=False)
          (4): GELU(approximate='none')
          (5): Linear(in_features=8, out_features=32, bias=False)
        )
        (tfc2): Sequential(
          (0): InstanceNorm2d(768, eps=1e-05, momentum=0.1, affine=True, track_running_stats=False)
          (1): GELU(approximate='none')
          (2): Conv2d(768, 768, kernel_size=(3, 3), stride=(1, 1), padding=(1, 1), bias=False)
        )
        (shortcut): Conv2d(768, 768, kernel_size=(1, 1), stride=(1, 1), bias=False)
      )
    )
  )
  (decoder_blocks): ModuleList(
    (0): Module(
      (upscale): Upscale(
        (conv): Sequential(
          (0): InstanceNorm2d(768, eps=1e-05, momentum=0.1, affine=True, track_running_stats=False)
          (1): GELU(approximate='none')
          (2): ConvTranspose2d(768, 640, kernel_size=(2, 2), stride=(2, 2), bias=False)
        )
      )
      (tfc_tdf): TFC_TDF(
        (blocks): ModuleList(
          (0): Module(
            (tfc1): Sequential(
              (0): InstanceNorm2d(1280, eps=1e-05, momentum=0.1, affine=True, track_running_stats=False)
              (1): GELU(approximate='none')
              (2): Conv2d(1280, 640, kernel_size=(3, 3), stride=(1, 1), padding=(1, 1), bias=False)
            )
            (tdf): Sequential(
              (0): InstanceNorm2d(640, eps=1e-05, momentum=0.1, affine=True, track_running_stats=False)
              (1): GELU(approximate='none')
              (2): Linear(in_features=64, out_features=16, bias=False)
              (3): InstanceNorm2d(640, eps=1e-05, momentum=0.1, affine=True, track_running_stats=False)
              (4): GELU(approximate='none')
              (5): Linear(in_features=16, out_features=64, bias=False)
            )
            (tfc2): Sequential(
              (0): InstanceNorm2d(640, eps=1e-05, momentum=0.1, affine=True, track_running_stats=False)
              (1): GELU(approximate='none')
              (2): Conv2d(640, 640, kernel_size=(3, 3), stride=(1, 1), padding=(1, 1), bias=False)
            )
            (shortcut): Conv2d(1280, 640, kernel_size=(1, 1), stride=(1, 1), bias=False)
          )
          (1): Module(
            (tfc1): Sequential(
              (0): InstanceNorm2d(640, eps=1e-05, momentum=0.1, affine=True, track_running_stats=False)
              (1): GELU(approximate='none')
              (2): Conv2d(640, 640, kernel_size=(3, 3), stride=(1, 1), padding=(1, 1), bias=False)
            )
            (tdf): Sequential(
              (0): InstanceNorm2d(640, eps=1e-05, momentum=0.1, affine=True, track_running_stats=False)
              (1): GELU(approximate='none')
              (2): Linear(in_features=64, out_features=16, bias=False)
              (3): InstanceNorm2d(640, eps=1e-05, momentum=0.1, affine=True, track_running_stats=False)
              (4): GELU(approximate='none')
              (5): Linear(in_features=16, out_features=64, bias=False)
            )
            (tfc2): Sequential(
              (0): InstanceNorm2d(640, eps=1e-05, momentum=0.1, affine=True, track_running_stats=False)
              (1): GELU(approximate='none')
              (2): Conv2d(640, 640, kernel_size=(3, 3), stride=(1, 1), padding=(1, 1), bias=False)
            )
            (shortcut): Conv2d(640, 640, kernel_size=(1, 1), stride=(1, 1), bias=False)
          )
        )
      )
    )
    (1): Module(
      (upscale): Upscale(
        (conv): Sequential(
          (0): InstanceNorm2d(640, eps=1e-05, momentum=0.1, affine=True, track_running_stats=False)
          (1): GELU(approximate='none')
          (2): ConvTranspose2d(640, 512, kernel_size=(2, 2), stride=(2, 2), bias=False)
        )
      )
      (tfc_tdf): TFC_TDF(
        (blocks): ModuleList(
          (0): Module(
            (tfc1): Sequential(
              (0): InstanceNorm2d(1024, eps=1e-05, momentum=0.1, affine=True, track_running_stats=False)
              (1): GELU(approximate='none')
              (2): Conv2d(1024, 512, kernel_size=(3, 3), stride=(1, 1), padding=(1, 1), bias=False)
            )
            (tdf): Sequential(
              (0): InstanceNorm2d(512, eps=1e-05, momentum=0.1, affine=True, track_running_stats=False)
              (1): GELU(approximate='none')
              (2): Linear(in_features=128, out_features=32, bias=False)
              (3): InstanceNorm2d(512, eps=1e-05, momentum=0.1, affine=True, track_running_stats=False)
              (4): GELU(approximate='none')
              (5): Linear(in_features=32, out_features=128, bias=False)
            )
            (tfc2): Sequential(
              (0): InstanceNorm2d(512, eps=1e-05, momentum=0.1, affine=True, track_running_stats=False)
              (1): GELU(approximate='none')
              (2): Conv2d(512, 512, kernel_size=(3, 3), stride=(1, 1), padding=(1, 1), bias=False)
            )
            (shortcut): Conv2d(1024, 512, kernel_size=(1, 1), stride=(1, 1), bias=False)
          )
          (1): Module(
            (tfc1): Sequential(
              (0): InstanceNorm2d(512, eps=1e-05, momentum=0.1, affine=True, track_running_stats=False)
              (1): GELU(approximate='none')
              (2): Conv2d(512, 512, kernel_size=(3, 3), stride=(1, 1), padding=(1, 1), bias=False)
            )
            (tdf): Sequential(
              (0): InstanceNorm2d(512, eps=1e-05, momentum=0.1, affine=True, track_running_stats=False)
              (1): GELU(approximate='none')
              (2): Linear(in_features=128, out_features=32, bias=False)
              (3): InstanceNorm2d(512, eps=1e-05, momentum=0.1, affine=True, track_running_stats=False)
              (4): GELU(approximate='none')
              (5): Linear(in_features=32, out_features=128, bias=False)
            )
            (tfc2): Sequential(
              (0): InstanceNorm2d(512, eps=1e-05, momentum=0.1, affine=True, track_running_stats=False)
              (1): GELU(approximate='none')
              (2): Conv2d(512, 512, kernel_size=(3, 3), stride=(1, 1), padding=(1, 1), bias=False)
            )
            (shortcut): Conv2d(512, 512, kernel_size=(1, 1), stride=(1, 1), bias=False)
          )
        )
      )
    )
    (2): Module(
      (upscale): Upscale(
        (conv): Sequential(
          (0): InstanceNorm2d(512, eps=1e-05, momentum=0.1, affine=True, track_running_stats=False)
          (1): GELU(approximate='none')
          (2): ConvTranspose2d(512, 384, kernel_size=(2, 2), stride=(2, 2), bias=False)
        )
      )
      (tfc_tdf): TFC_TDF(
        (blocks): ModuleList(
          (0): Module(
            (tfc1): Sequential(
              (0): InstanceNorm2d(768, eps=1e-05, momentum=0.1, affine=True, track_running_stats=False)
              (1): GELU(approximate='none')
              (2): Conv2d(768, 384, kernel_size=(3, 3), stride=(1, 1), padding=(1, 1), bias=False)
            )
            (tdf): Sequential(
              (0): InstanceNorm2d(384, eps=1e-05, momentum=0.1, affine=True, track_running_stats=False)
              (1): GELU(approximate='none')
              (2): Linear(in_features=256, out_features=64, bias=False)
              (3): InstanceNorm2d(384, eps=1e-05, momentum=0.1, affine=True, track_running_stats=False)
              (4): GELU(approximate='none')
              (5): Linear(in_features=64, out_features=256, bias=False)
            )
            (tfc2): Sequential(
              (0): InstanceNorm2d(384, eps=1e-05, momentum=0.1, affine=True, track_running_stats=False)
              (1): GELU(approximate='none')
              (2): Conv2d(384, 384, kernel_size=(3, 3), stride=(1, 1), padding=(1, 1), bias=False)
            )
            (shortcut): Conv2d(768, 384, kernel_size=(1, 1), stride=(1, 1), bias=False)
          )
          (1): Module(
            (tfc1): Sequential(
              (0): InstanceNorm2d(384, eps=1e-05, momentum=0.1, affine=True, track_running_stats=False)
              (1): GELU(approximate='none')
              (2): Conv2d(384, 384, kernel_size=(3, 3), stride=(1, 1), padding=(1, 1), bias=False)
            )
            (tdf): Sequential(
              (0): InstanceNorm2d(384, eps=1e-05, momentum=0.1, affine=True, track_running_stats=False)
              (1): GELU(approximate='none')
              (2): Linear(in_features=256, out_features=64, bias=False)
              (3): InstanceNorm2d(384, eps=1e-05, momentum=0.1, affine=True, track_running_stats=False)
              (4): GELU(approximate='none')
              (5): Linear(in_features=64, out_features=256, bias=False)
            )
            (tfc2): Sequential(
              (0): InstanceNorm2d(384, eps=1e-05, momentum=0.1, affine=True, track_running_stats=False)
              (1): GELU(approximate='none')
              (2): Conv2d(384, 384, kernel_size=(3, 3), stride=(1, 1), padding=(1, 1), bias=False)
            )
            (shortcut): Conv2d(384, 384, kernel_size=(1, 1), stride=(1, 1), bias=False)
          )
        )
      )
    )
    (3): Module(
      (upscale): Upscale(
        (conv): Sequential(
          (0): InstanceNorm2d(384, eps=1e-05, momentum=0.1, affine=True, track_running_stats=False)
          (1): GELU(approximate='none')
          (2): ConvTranspose2d(384, 256, kernel_size=(2, 2), stride=(2, 2), bias=False)
        )
      )
      (tfc_tdf): TFC_TDF(
        (blocks): ModuleList(
          (0): Module(
            (tfc1): Sequential(
              (0): InstanceNorm2d(512, eps=1e-05, momentum=0.1, affine=True, track_running_stats=False)
              (1): GELU(approximate='none')
              (2): Conv2d(512, 256, kernel_size=(3, 3), stride=(1, 1), padding=(1, 1), bias=False)
            )
            (tdf): Sequential(
              (0): InstanceNorm2d(256, eps=1e-05, momentum=0.1, affine=True, track_running_stats=False)
              (1): GELU(approximate='none')
              (2): Linear(in_features=512, out_features=128, bias=False)
              (3): InstanceNorm2d(256, eps=1e-05, momentum=0.1, affine=True, track_running_stats=False)
              (4): GELU(approximate='none')
              (5): Linear(in_features=128, out_features=512, bias=False)
            )
            (tfc2): Sequential(
              (0): InstanceNorm2d(256, eps=1e-05, momentum=0.1, affine=True, track_running_stats=False)
              (1): GELU(approximate='none')
              (2): Conv2d(256, 256, kernel_size=(3, 3), stride=(1, 1), padding=(1, 1), bias=False)
            )
            (shortcut): Conv2d(512, 256, kernel_size=(1, 1), stride=(1, 1), bias=False)
          )
          (1): Module(
            (tfc1): Sequential(
              (0): InstanceNorm2d(256, eps=1e-05, momentum=0.1, affine=True, track_running_stats=False)
              (1): GELU(approximate='none')
              (2): Conv2d(256, 256, kernel_size=(3, 3), stride=(1, 1), padding=(1, 1), bias=False)
            )
            (tdf): Sequential(
              (0): InstanceNorm2d(256, eps=1e-05, momentum=0.1, affine=True, track_running_stats=False)
              (1): GELU(approximate='none')
              (2): Linear(in_features=512, out_features=128, bias=False)
              (3): InstanceNorm2d(256, eps=1e-05, momentum=0.1, affine=True, track_running_stats=False)
              (4): GELU(approximate='none')
              (5): Linear(in_features=128, out_features=512, bias=False)
            )
            (tfc2): Sequential(
              (0): InstanceNorm2d(256, eps=1e-05, momentum=0.1, affine=True, track_running_stats=False)
              (1): GELU(approximate='none')
              (2): Conv2d(256, 256, kernel_size=(3, 3), stride=(1, 1), padding=(1, 1), bias=False)
            )
            (shortcut): Conv2d(256, 256, kernel_size=(1, 1), stride=(1, 1), bias=False)
          )
        )
      )
    )
    (4): Module(
      (upscale): Upscale(
        (conv): Sequential(
          (0): InstanceNorm2d(256, eps=1e-05, momentum=0.1, affine=True, track_running_stats=False)
          (1): GELU(approximate='none')
          (2): ConvTranspose2d(256, 128, kernel_size=(2, 2), stride=(2, 2), bias=False)
        )
      )
      (tfc_tdf): TFC_TDF(
        (blocks): ModuleList(
          (0): Module(
            (tfc1): Sequential(
              (0): InstanceNorm2d(256, eps=1e-05, momentum=0.1, affine=True, track_running_stats=False)
              (1): GELU(approximate='none')
              (2): Conv2d(256, 128, kernel_size=(3, 3), stride=(1, 1), padding=(1, 1), bias=False)
            )
            (tdf): Sequential(
              (0): InstanceNorm2d(128, eps=1e-05, momentum=0.1, affine=True, track_running_stats=False)
              (1): GELU(approximate='none')
              (2): Linear(in_features=1024, out_features=256, bias=False)
              (3): InstanceNorm2d(128, eps=1e-05, momentum=0.1, affine=True, track_running_stats=False)
              (4): GELU(approximate='none')
              (5): Linear(in_features=256, out_features=1024, bias=False)
            )
            (tfc2): Sequential(
              (0): InstanceNorm2d(128, eps=1e-05, momentum=0.1, affine=True, track_running_stats=False)
              (1): GELU(approximate='none')
              (2): Conv2d(128, 128, kernel_size=(3, 3), stride=(1, 1), padding=(1, 1), bias=False)
            )
            (shortcut): Conv2d(256, 128, kernel_size=(1, 1), stride=(1, 1), bias=False)
          )
          (1): Module(
            (tfc1): Sequential(
              (0): InstanceNorm2d(128, eps=1e-05, momentum=0.1, affine=True, track_running_stats=False)
              (1): GELU(approximate='none')
              (2): Conv2d(128, 128, kernel_size=(3, 3), stride=(1, 1), padding=(1, 1), bias=False)
            )
            (tdf): Sequential(
              (0): InstanceNorm2d(128, eps=1e-05, momentum=0.1, affine=True, track_running_stats=False)
              (1): GELU(approximate='none')
              (2): Linear(in_features=1024, out_features=256, bias=False)
              (3): InstanceNorm2d(128, eps=1e-05, momentum=0.1, affine=True, track_running_stats=False)
              (4): GELU(approximate='none')
              (5): Linear(in_features=256, out_features=1024, bias=False)
            )
            (tfc2): Sequential(
              (0): InstanceNorm2d(128, eps=1e-05, momentum=0.1, affine=True, track_running_stats=False)
              (1): GELU(approximate='none')
              (2): Conv2d(128, 128, kernel_size=(3, 3), stride=(1, 1), padding=(1, 1), bias=False)
            )
            (shortcut): Conv2d(128, 128, kernel_size=(1, 1), stride=(1, 1), bias=False)
          )
        )
      )
    )
  )
  (final_conv): Sequential(
    (0): Conv2d(144, 128, kernel_size=(1, 1), stride=(1, 1), bias=False)
    (1): GELU(approximate='none')
    (2): Conv2d(128, 64, kernel_size=(1, 1), stride=(1, 1), bias=False)
  )
)
Instruments: ['vocals', 'bass', 'drums', 'other']
Metrics for training: ['sdr']. Metric for scheduler: sdr
Patience: 2 Reduce factor: 0.95
Batch size: 2 Grad accum steps: 1 Effective batch size: 2
Dataset type: 1
Optimizer: adam
Train for: 1000 epochs
Train epoch: 0 Learning rate: 9e-05
  0%|          | 0/1000 [00:00<?, ?it/s]  0%|   
…
