…
  0%|          | 0/86 [00:00<?, ?it/s]  1%|          | 1/86 [01:08<1:36:22, 68.03s/it]  2%|▏         | 2/86 [01:43<1:08:24, 48.86s/it]  3%|▎         | 3/86 [01:53<43:15, 31.27s/it]    5%|▍         | 4/86 [01:56<27:33, 20.16s/it] 10%|█         | 9/86 [02:46<16:13, 12.65s/it] 17%|█▋        | 15/86 [02:59<08:00,  6.77s/it] 19%|█▊        | 16/86 [03:42<12:52, 11.03s/it] 22%|██▏       | 19/86 [03:48<08:51,  7.94s/it] 27%|██▋       | 23/86 [04:12<07:35,  7.23s/it] 76%|███████▌  | 65/86 [04:24<00:27,  1.31s/it]100%|██████████| 86/86 [04:24<00:00,  3.08s/it]
Found tracks in dataset: 86
SCNet(
  (encoder): ModuleList(
    (0): SDblock(
      (SDlayer): SDlayer(
        (convs): ModuleList(
          (0): Conv2d(4, 32, kernel_size=(3, 1), stride=(1, 1))
          (1): Conv2d(4, 32, kernel_size=(4, 1), stride=(4, 1))
          (2): Conv2d(4, 32, kernel_size=(16, 1), stride=(16, 1))
        )
      )
      (conv_modules): ModuleList(
        (0): ConvolutionModule(
          (layers): ModuleList(
            (0-2): 3 x Sequential(
              (0): GroupNorm(1, 32, eps=1e-05, affine=True)
              (1): Conv1d(32, 16, kernel_size=(3,), stride=(1,), padding=(1,))
              (2): GLU(dim=1)
              (3): Conv1d(8, 8, kernel_size=(3,), stride=(1,), padding=(1,), groups=8)
              (4): GroupNorm(1, 8, eps=1e-05, affine=True)
              (5): Swish()
              (6): Conv1d(8, 32, kernel_size=(1,), stride=(1,))
            )
          )
        )
        (1): ConvolutionModule(
          (layers): ModuleList(
            (0-1): 2 x Sequential(
              (0): GroupNorm(1, 32, eps=1e-05, affine=True)
              (1): Conv1d(32, 16, kernel_size=(3,), stride=(1,), padding=(1,))
              (2): GLU(dim=1)
              (3): Conv1d(8, 8, kernel_size=(3,), stride=(1,), padding=(1,), groups=8)
              (4): GroupNorm(1, 8, eps=1e-05, affine=True)
              (5): Swish()
              (6): Conv1d(8, 32, kernel_size=(1,), stride=(1,))
            )
          )
        )
        (2): ConvolutionModule(
          (layers): ModuleList(
            (0): Sequential(
              (0): GroupNorm(1, 32, eps=1e-05, affine=True)
              (1): Conv1d(32, 16, kernel_size=(3,), stride=(1,), padding=(1,))
              (2): GLU(dim=1)
              (3): Conv1d(8, 8, kernel_size=(3,), stride=(1,), padding=(1,), groups=8)
              (4): GroupNorm(1, 8, eps=1e-05, affine=True)
              (5): Swish()
              (6): Conv1d(8, 32, kernel_size=(1,), stride=(1,))
            )
          )
        )
      )
      (globalconv): Conv2d(32, 32, kernel_size=(3, 3), stride=(1, 1), padding=(1, 1))
    )
    (1): SDblock(
      (SDlayer): SDlayer(
        (convs): ModuleList(
          (0): Conv2d(32, 64, kernel_size=(3, 1), stride=(1, 1))
          (1): Conv2d(32, 64, kernel_size=(4, 1), stride=(4, 1))
          (2): Conv2d(32, 64, kernel_size=(16, 1), stride=(16, 1))
        )
      )
      (conv_modules): ModuleList(
        (0): ConvolutionModule(
          (layers): ModuleList(
            (0-2): 3 x Sequential(
              (0): GroupNorm(1, 64, eps=1e-05, affine=True)
              (1): Conv1d(64, 32, kernel_size=(3,), stride=(1,), padding=(1,))
              (2): GLU(dim=1)
              (3): Conv1d(16, 16, kernel_size=(3,), stride=(1,), padding=(1,), groups=16)
              (4): GroupNorm(1, 16, eps=1e-05, affine=True)
              (5): Swish()
              (6): Conv1d(16, 64, kernel_size=(1,), stride=(1,))
            )
          )
        )
        (1): ConvolutionModule(
          (layers): ModuleList(
            (0-1): 2 x Sequential(
              (0): GroupNorm(1, 64, eps=1e-05, affine=True)
              (1): Conv1d(64, 32, kernel_size=(3,), stride=(1,), padding=(1,))
              (2): GLU(dim=1)
              (3): Conv1d(16, 16, kernel_size=(3,), stride=(1,), padding=(1,), groups=16)
              (4): GroupNorm(1, 16, eps=1e-05, affine=True)
              (5): Swish()
              (6): Conv1d(16, 64, kernel_size=(1,), stride=(1,))
            )
          )
        )
        (2): ConvolutionModule(
          (layers): ModuleList(
            (0): Sequential(
              (0): GroupNorm(1, 64, eps=1e-05, affine=True)
              (1): Conv1d(64, 32, kernel_size=(3,), stride=(1,), padding=(1,))
              (2): GLU(dim=1)
              (3): Conv1d(16, 16, kernel_size=(3,), stride=(1,), padding=(1,), groups=16)
              (4): GroupNorm(1, 16, eps=1e-05, affine=True)
              (5): Swish()
              (6): Conv1d(16, 64, kernel_size=(1,), stride=(1,))
            )
          )
        )
      )
      (globalconv): Conv2d(64, 64, kernel_size=(3, 3), stride=(1, 1), padding=(1, 1))
    )
    (2): SDblock(
      (SDlayer): SDlayer(
        (convs): ModuleList(
          (0): Conv2d(64, 128, kernel_size=(3, 1), stride=(1, 1))
          (1): Conv2d(64, 128, kernel_size=(4, 1), stride=(4, 1))
          (2): Conv2d(64, 128, kernel_size=(16, 1), stride=(16, 1))
        )
      )
      (conv_modules): ModuleList(
        (0): ConvolutionModule(
          (layers): ModuleList(
            (0-2): 3 x Sequential(
              (0): GroupNorm(1, 128, eps=1e-05, affine=True)
              (1): Conv1d(128, 64, kernel_size=(3,), stride=(1,), padding=(1,))
              (2): GLU(dim=1)
              (3): Conv1d(32, 32, kernel_size=(3,), stride=(1,), padding=(1,), groups=32)
              (4): GroupNorm(1, 32, eps=1e-05, affine=True)
              (5): Swish()
              (6): Conv1d(32, 128, kernel_size=(1,), stride=(1,))
            )
          )
        )
        (1): ConvolutionModule(
          (layers): ModuleList(
            (0-1): 2 x Sequential(
              (0): GroupNorm(1, 128, eps=1e-05, affine=True)
              (1): Conv1d(128, 64, kernel_size=(3,), stride=(1,), padding=(1,))
              (2): GLU(dim=1)
              (3): Conv1d(32, 32, kernel_size=(3,), stride=(1,), padding=(1,), groups=32)
              (4): GroupNorm(1, 32, eps=1e-05, affine=True)
              (5): Swish()
              (6): Conv1d(32, 128, kernel_size=(1,), stride=(1,))
            )
          )
        )
        (2): ConvolutionModule(
          (layers): ModuleList(
            (0): Sequential(
              (0): GroupNorm(1, 128, eps=1e-05, affine=True)
              (1): Conv1d(128, 64, kernel_size=(3,), stride=(1,), padding=(1,))
              (2): GLU(dim=1)
              (3): Conv1d(32, 32, kernel_size=(3,), stride=(1,), padding=(1,), groups=32)
              (4): GroupNorm(1, 32, eps=1e-05, affine=True)
              (5): Swish()
              (6): Conv1d(32, 128, kernel_size=(1,), stride=(1,))
            )
          )
        )
      )
      (globalconv): Conv2d(128, 128, kernel_size=(3, 3), stride=(1, 1), padding=(1, 1))
    )
  )
  (decoder): ModuleList(
    (0): Sequential(
      (0): FusionLayer(
        (conv): Conv2d(256, 256, kernel_size=(3, 3), stride=(1, 1), padding=(1, 1))
      )
      (1): SUlayer(
        (convtrs): ModuleList(
          (0): ConvTranspose2d(128, 64, kernel_size=(3, 1), stride=(1, 1))
          (1): ConvTranspose2d(128, 64, kernel_size=(4, 1), stride=(4, 1))
          (2): ConvTranspose2d(128, 64, kernel_size=(16, 1), stride=(16, 1))
        )
      )
    )
    (1): Sequential(
      (0): FusionLayer(
        (conv): Conv2d(128, 128, kernel_size=(3, 3), stride=(1, 1), padding=(1, 1))
      )
      (1): SUlayer(
        (convtrs): ModuleList(
          (0): ConvTranspose2d(64, 32, kernel_size=(3, 1), stride=(1, 1))
          (1): ConvTranspose2d(64, 32, kernel_size=(4, 1), stride=(4, 1))
          (2): ConvTranspose2d(64, 32, kernel_size=(16, 1), stride=(16, 1))
        )
      )
    )
    (2): Sequential(
      (0): FusionLayer(
        (conv): Conv2d(64, 64, kernel_size=(3, 3), stride=(1, 1), padding=(1, 1))
      )
      (1): SUlayer(
        (convtrs): ModuleList(
          (0): ConvTranspose2d(32, 16, kernel_size=(3, 1), stride=(1, 1))
          (1): ConvTranspose2d(32, 16, kernel_size=(4, 1), stride=(4, 1))
          (2): ConvTranspose2d(32, 16, kernel_size=(16, 1), stride=(16, 1))
        )
      )
    )
  )
  (separation_net): SeparationNet(
    (dp_modules): ModuleList(
      (0): DualPathRNN(
        (lstm_layers): ModuleList(
          (0-1): 2 x LSTM(128, 128, batch_first=True, bidirectional=True)
        )
        (linear_layers): ModuleList(
          (0-1): 2 x Linear(in_features=256, out_features=128, bias=True)
        )
…
