…
76%|███████▌  | 65/86 [03:09<01:22,  3.91s/it] 81%|████████▏ | 70/86 [03:15<00:43,  2.75s/it] 85%|████████▍ | 73/86 [03:23<00:35,  2.75s/it] 87%|████████▋ | 75/86 [03:29<00:30,  2.79s/it] 88%|████████▊ | 76/86 [03:35<00:32,  3.23s/it] 97%|█████████▋| 83/86 [03:36<00:04,  1.47s/it] 98%|█████████▊| 84/86 [03:42<00:03,  1.97s/it] 99%|█████████▉| 85/86 [03:48<00:02,  2.47s/it]100%|██████████| 86/86 [03:48<00:00,  2.66s/it]
Found tracks in dataset: 86
Separator(
  (BN_mask): ModuleList(
    (0-19): 20 x Sequential(
      (0): GroupNorm(1, 4, eps=1.1920928955078125e-07, affine=True)
      (1): Conv1d(4, 128, kernel_size=(1,), stride=(1,))
    )
    (20-29): 10 x Sequential(
      (0): GroupNorm(1, 8, eps=1.1920928955078125e-07, affine=True)
      (1): Conv1d(8, 128, kernel_size=(1,), stride=(1,))
    )
    (30-37): 8 x Sequential(
      (0): GroupNorm(1, 22, eps=1.1920928955078125e-07, affine=True)
      (1): Conv1d(22, 128, kernel_size=(1,), stride=(1,))
    )
    (38-45): 8 x Sequential(
      (0): GroupNorm(1, 46, eps=1.1920928955078125e-07, affine=True)
      (1): Conv1d(46, 128, kernel_size=(1,), stride=(1,))
    )
    (46-53): 8 x Sequential(
      (0): GroupNorm(1, 92, eps=1.1920928955078125e-07, affine=True)
      (1): Conv1d(92, 128, kernel_size=(1,), stride=(1,))
    )
    (54-55): 2 x Sequential(
      (0): GroupNorm(1, 184, eps=1.1920928955078125e-07, affine=True)
      (1): Conv1d(184, 128, kernel_size=(1,), stride=(1,))
    )
    (56): Sequential(
      (0): GroupNorm(1, 242, eps=1.1920928955078125e-07, affine=True)
      (1): Conv1d(242, 128, kernel_size=(1,), stride=(1,))
    )
  )
  (BN_map): ModuleList(
    (0-19): 20 x Sequential(
      (0): GroupNorm(1, 4, eps=1.1920928955078125e-07, affine=True)
      (1): Conv1d(4, 128, kernel_size=(1,), stride=(1,))
    )
    (20-29): 10 x Sequential(
      (0): GroupNorm(1, 8, eps=1.1920928955078125e-07, affine=True)
      (1): Conv1d(8, 128, kernel_size=(1,), stride=(1,))
    )
    (30-37): 8 x Sequential(
      (0): GroupNorm(1, 22, eps=1.1920928955078125e-07, affine=True)
      (1): Conv1d(22, 128, kernel_size=(1,), stride=(1,))
    )
    (38-45): 8 x Sequential(
      (0): GroupNorm(1, 46, eps=1.1920928955078125e-07, affine=True)
      (1): Conv1d(46, 128, kernel_size=(1,), stride=(1,))
    )
    (46-53): 8 x Sequential(
      (0): GroupNorm(1, 92, eps=1.1920928955078125e-07, affine=True)
      (1): Conv1d(92, 128, kernel_size=(1,), stride=(1,))
    )
    (54-55): 2 x Sequential(
      (0): GroupNorm(1, 184, eps=1.1920928955078125e-07, affine=True)
      (1): Conv1d(184, 128, kernel_size=(1,), stride=(1,))
    )
    (56): Sequential(
      (0): GroupNorm(1, 242, eps=1.1920928955078125e-07, affine=True)
      (1): Conv1d(242, 128, kernel_size=(1,), stride=(1,))
    )
  )
  (separator_mask): Sequential(
    (0): BSNet(
      (band_rnn): ResMamba(
        (norm): GroupNorm(1, 128, eps=1.1920928955078125e-07, affine=True)
        (dropout): Dropout(p=0.0, inplace=False)
        (rnn): MambaBlock(
          (forward_mamba2): Mamba2(
            (in_proj): Linear(in_features=128, out_features=1288, bias=False)
            (conv1d): Conv1d(768, 768, kernel_size=(4,), stride=(1,), padding=(3,), groups=768)
            (norm): RMSNorm()
            (out_proj): Linear(in_features=512, out_features=128, bias=False)
          )
          (backward_mamba2): Mamba2(
            (in_proj): Linear(in_features=128, out_features=1288, bias=False)
            (conv1d): Conv1d(768, 768, kernel_size=(4,), stride=(1,), padding=(3,), groups=768)
            (norm): RMSNorm()
            (out_proj): Linear(in_features=512, out_features=128, bias=False)
          )
        )
        (proj): Linear(in_features=256, out_features=128, bias=True)
      )
      (band_comm): ResMamba(
        (norm): GroupNorm(1, 128, eps=1.1920928955078125e-07, affine=True)
        (dropout): Dropout(p=0.0, inplace=False)
        (rnn): MambaBlock(
          (forward_mamba2): Mamba2(
            (in_proj): Linear(in_features=128, out_features=1288, bias=False)
            (conv1d): Conv1d(768, 768, kernel_size=(4,), stride=(1,), padding=(3,), groups=768)
            (norm): RMSNorm()
            (out_proj): Linear(in_features=512, out_features=128, bias=False)
          )
          (backward_mamba2): Mamba2(
            (in_proj): Linear(in_features=128, out_features=1288, bias=False)
            (conv1d): Conv1d(768, 768, kernel_size=(4,), stride=(1,), padding=(3,), groups=768)
            (norm): RMSNorm()
            (out_proj): Linear(in_features=512, out_features=128, bias=False)
          )
        )
        (proj): Linear(in_features=256, out_features=128, bias=True)
      )
      (channel_comm): TAC(
        (input_norm): GroupNorm(1, 128, eps=1.1920928955078125e-07, affine=True)
        (TAC_input): Sequential(
          (0): Linear(in_features=128, out_features=384, bias=True)
          (1): Tanh()
        )
        (TAC_mean): Sequential(
          (0): Linear(in_features=384, out_features=384, bias=True)
          (1): Tanh()
        )
        (TAC_output): Sequential(
          (0): Linear(in_features=768, out_features=128, bias=True)
          (1): Tanh()
        )
      )
    )
    (1): BSNet(
      (band_rnn): ResMamba(
        (norm): GroupNorm(1, 128, eps=1.1920928955078125e-07, affine=True)
        (dropout): Dropout(p=0.0, inplace=False)
        (rnn): MambaBlock(
          (forward_mamba2): Mamba2(
            (in_proj): Linear(in_features=128, out_features=1288, bias=False)
            (conv1d): Conv1d(768, 768, kernel_size=(4,), stride=(1,), padding=(3,), groups=768)
            (norm): RMSNorm()
            (out_proj): Linear(in_features=512, out_features=128, bias=False)
          )
          (backward_mamba2): Mamba2(
            (in_proj): Linear(in_features=128, out_features=1288, bias=False)
            (conv1d): Conv1d(768, 768, kernel_size=(4,), stride=(1,), padding=(3,), groups=768)
            (norm): RMSNorm()
            (out_proj): Linear(in_features=512, out_features=128, bias=False)
          )
        )
        (proj): Linear(in_features=256, out_features=128, bias=True)
      )
      (band_comm): ResMamba(
        (norm): GroupNorm(1, 128, eps=1.1920928955078125e-07, affine=True)
        (dropout): Dropout(p=0.0, inplace=False)
        (rnn): MambaBlock(
          (forward_mamba2): Mamba2(
            (in_proj): Linear(in_features=128, out_features=1288, bias=False)
            (conv1d): Conv1d(768, 768, kernel_size=(4,), stride=(1,), padding=(3,), groups=768)
            (norm): RMSNorm()
            (out_proj): Linear(in_features=512, out_features=128, bias=False)
          )
          (backward_mamba2): Mamba2(
            (in_proj): Linear(in_features=128, out_features=1288, bias=False)
            (conv1d): Conv1d(768, 768, kernel_size=(4,), stride=(1,), padding=(3,), groups=768)
            (norm): RMSNorm()
            (out_proj): Linear(in_features=512, out_features=128, bias=False)
          )
        )
        (proj): Linear(in_features=256, out_features=128, bias=True)
      )
      (channel_comm): TAC(
        (input_norm): GroupNorm(1, 128, eps=1.1920928955078125e-07, affine=True)
        (TAC_input): Sequential(
          (0): Linear(in_features=128, out_features=384, bias=True)
          (1): Tanh()
        )
        (TAC_mean): Sequential(
          (0): Linear(in_features=384, out_features=384, bias=True)
          (1): Tanh()
        )
        (TAC_output): Sequential(
          (0): Linear(in_features=768, out_features=128, bias=True)
          (1): Tanh()
        )
      )
    )
    (2): BSNet(
      (band_rnn): ResMamba(
        (norm): GroupNorm(1, 128, eps=1.1920928955078125e-07, affine=True)
        (dropout): Dropout(p=0.0, inplace=False)
        (rnn): MambaBlock(
          (forward_mamba2): Mamba2(
            (in_proj): Linear(in_features=128, out_features=1288, bias=False)
            (conv1d): Conv1d(768, 768, kernel_size=(4,), stride=(1,), padding=(3,), groups=768)
            (norm): RMSNorm()
            (out_proj): Linear(in_features=512, out_features=128, bias=False)
          )
          (backward_mamba2): Mamba2(
            (in_proj): Linear(in_features=128, out_features=1288, bias=False)
            (conv1d): Conv1d(768, 768, kernel_size=(4,), stride=(1,), padding=(3,), groups=768)
            (norm): RMSNorm()
            (out_proj): Linear(in_features=512, out_features=128, bias=False)
          )
        )
        (proj): Linear(in_features=256, out_features=128, bias=True)
      )
      (band_comm): ResMamba(
        (norm): GroupNorm(1, 128, eps=1.1920928955078125e-07, affine=True)
        (dropout): Dropout(p=0.0, inplace=False)
        (rnn): MambaBlock(
          (forward_mamba2): Mamba2(
            (in_proj): Linear(in_features=128, out_features=1288, bias=False)
            (conv1d): Conv1d(768, 768, kernel_size=(4,), stride=(1,), padding=(3,), groups=768)
            (norm): RMSNorm()
            (out_proj): Linear(in_features=512, out_features=128, bias=False)
          )
          (backward_mamba2): Mamba2(
            (in_proj): Linear(in_features=128, out_features=1288, bias=False)
            (conv1d): Conv1d(768, 768, kernel_size=(4,), stride=(1,), padding=(3,), groups=768)
            (norm): RMSNorm()
            (out_proj): Linear(in_features=512, out_features=128, bias=False)
          )
        )
        (proj): Linear(in_features=256, out_features=128, bias=True)
      )
      (channel_comm): TAC(
        (input_norm): GroupNorm(1, 128, eps=1.1920928955078125e-07, affine=True)
        (TAC_input): Sequential(
          (0): Linear(in_features=128, out_features=384, bias=True)
          (1): Tanh()
        )
        (TAC_mean): Sequential(
          (0): Linear(in_features=384, out_features=384, bias=True)
          (1): Tanh()
        )
        (TAC_output): Sequential(
          (0): Linear(in_features=768, out_features=128, bias=True)
          (1): Tanh()
        )
      )
    )
    (3): BSNet(
      (band_rnn): ResMamba(
        (norm): GroupNorm(1, 128, eps=1.1920928955078125e-07, affine=True)
        (dropout): Dropout(p=0.0, inplace=False)
        (rnn): MambaBlock(
          (forward_mamba2): Mamba2(
            (in_proj): Linear(in_features=128, out_features=1288, bias=False)
            (conv1d): Conv1d(768, 768, kernel_size=(4,), stride=(1,), padding=(3,), groups=768)
            (norm): RMSNorm()
            (out_proj): Linear(in_features=512, out_features=128, bias=False)
          )
          (backward_mamba2): Mamba2(
            (in_proj): Linear(in_features=128, out_features=1288, bias=False)
            (conv1d): Conv1d(768, 768, kernel_size=(4,), stride=(1,), padding=(3,), groups=768)
            (norm): RMSNorm()
            (out_proj): Linear(in_features=512, out_features=128, bias=False)
          )
        )
        (proj): Linear(in_features=256, out_features=128, bias=True)
      )
      (band_comm): ResMamba(
        (norm): GroupNorm(1, 128, eps=1.1920928955078125e-07, affine=True)
        (dropout): Dropout(p=0.0, inplace=False)
        (rnn): MambaBlock(
          (forward_mamba2): Mamba2(
            (in_proj): Linear(in_features=128, out_features=1288, bias=False)
            (conv1d): Conv1d(768, 768, kernel_size=(4,), stride=(1,), padding=(3,), groups=768)
            (norm): RMSNorm()
            (out_proj): Linear(in_features=512, out_features=128, bias=False)
          )
          (backward_mamba2): Mamba2(
            (in_proj): Linear(in_features=128, out_features=1288, bias=False)
            (conv1d): Conv1d(768, 768, kernel_size=(4,), stride=(1,), padding=(3,), groups=768)
            (norm): RMSNorm()
            (out_proj): Linear(in_features=512, out_features=128, bias=False)
          )
        )
        (proj): Linear(in_features=256, out_features=128, bias=True)
      )
      (channel_comm): TAC(
        (input_norm): GroupNorm(1, 128, eps=1.1920928955078125e-07, affine=True)
        (TAC_input): Sequential(
          (0): Linear(in_features=128, out_features=384, bias=True)
          (1): Tanh()
        )
        (TAC_mean): Sequential(
          (0): Linear(in_features=384, out_features=384, bias=True)
          (1): Tanh()
        )
        (TAC_output): Sequential(
          (0): Linear(in_features=768, out_features=128, bias=True)
          (1): Tanh()
        )
      )
    )
    (4): BSNet(
      (band_rnn): ResMamba(
        (norm): GroupNorm(1, 128, eps=1.1920928955078125e-07, affine=True)
        (dropout): Dropout(p=0.0, inplace=False)
        (rnn): MambaBlock(
          (forward_mamba2): Mamba2(
            (in_proj): Linear(in_features=128, out_features=1288, bias=False)
            (conv1d): Conv1d(768, 768, kernel_size=(4,), stride=(1,), padding=(3,), groups=768)
            (norm): RMSNorm()
            (out_proj): Linear(in_features=512, out_features=128, bias=False)
          )
          (backward_mamba2): Mamba2(
            (in_proj): Linear(in_features=128, out_features=1288, bias=False)
            (conv1d): Conv1d(768, 768, kernel_size=(4,), stride=(1,), padding=(3,), groups=768)
            (norm): RMSNorm()
            (out_proj): Linear(in_features=512, out_features=128, bias=False)
          )
        )
        (proj): Linear(in_features=256, out_features=128, bias=True)
      )
      (band_comm): ResMamba(
        (norm): GroupNorm(1, 128, eps=1.1920928955078125e-07, affine=True)
        (dropout): Dropout(p=0.0, inplace=False)
        (rnn): MambaBlock(
          (forward_mamba2): Mamba2(
            (in_proj): Linear(in_features=128, out_features=1288, bias=False)
            (conv1d): Conv1d(768, 768, kernel_size=(4,), stride=(1,), padding=(3,), groups=768)
            (norm): RMSNorm()
            (out_proj): Linear(in_features=512, out_features=128, bias=False)
          )
          (backward_mamba2): Mamba2(
            (in_proj): Linear(in_features=128, out_features=1288, bias=False)
            (conv1d): Conv1d(768, 768, kernel_size=(4,), stride=(1,), padding=(3,), groups=768)
            (norm): RMSNorm()
            (out_proj): Linear(in_features=512, out_features=128, bias=False)
          )
        )
        (proj): Linear(in_features=256, out_features=128, bias=True)
      )
      (channel_comm): TAC(
        (input_norm): GroupNorm(1, 128, eps=1.1920928955078125e-07, affine=True)
        (TAC_input): Sequential(
          (0): Linear(in_features=128, out_features=384, bias=True)
          (1): Tanh()
        )
        (TAC_mean): Sequential(
          (0): Linear(in_features=384, out_features=384, bias=True)
          (1): Tanh()
        )
        (TAC_output): Sequential(
          (0): Linear(in_features=768, out_features=128, bias=True)
          (1): Tanh()
        )
      )
    )
    (5): BSNet(
      (band_rnn): ResMamba(
        (norm): GroupNorm(1, 128, eps=1.1920928955078125e-07, affine=True)
        (dropout): Dropout(p=0.0, inplace=False)
        (rnn): MambaBlock(
          (forward_mamba2): Mamba2(
            (in_proj): Linear(in_features=128, out_features=1288, bias=False)
            (conv1d): Conv1d(768, 768, kernel_size=(4,), stride=(1,), padding=(3,), groups=768)
            (norm): RMSNorm()
            (out_proj): Linear(in_features=512, out_features=128, bias=False)
          )
          (backward_mamba2): Mamba2(
            (in_proj): Linear(in_features=128, out_features=1288, bias=False)
            (conv1d): Conv1d(768, 768, kernel_size=(4,), stride=(1,), padding=(3,), groups=768)
            (norm): RMSNorm()
            (out_proj): Linear(in_features=512, out_features=128, bias=False)
          )
        )
        (proj): Linear(in_features=256, out_features=128, bias=True)
      )
      (band_comm): ResMamba(
        (norm): GroupNorm(1, 128, eps=1.1920928955078125e-07, affine=True)
        (dropout): Dropout(p=0.0, inplace=False)
        (rnn): MambaBlock(
          (forward_mamba2): Mamba2(
            (in_proj): Linear(in_features=128, out_features=1288, bias=False)
            (conv1d): Conv1d(768, 768, kernel_size=(4,), stride=(1,), padding=(3,), groups=768)
            (norm): RMSNorm()
            (out_proj): Linear(in_features=512, out_features=128, bias=False)
          )
          (backward_mamba2): Mamba2(
            (in_proj): Linear(in_features=128, out_features=1288, bias=False)
            (conv1d): Conv1d(768, 768, kernel_size=(4,), stride=(1,), padding=(3,), groups=768)
            (norm): RMSNorm()
            (out_proj): Linear(in_features=512, out_features=128, bias=False)
          )
        )
        (proj): Linear(in_features=256, out_features=128, bias=True)
      )
      (channel_comm): TAC(
        (input_norm): GroupNorm(1, 128, eps=1.1920928955078125e-07, affine=True)
        (TAC_input): Sequential(
          (0): Linear(in_features=128, out_features=384, bias=True)
          (1): Tanh()
        )
        (TAC_mean): Sequential(
          (0): Linear(in_features=384, out_features=384, bias=True)
          (1): Tanh()
        )
        (TAC_output): Sequential(
          (0): Linear(in_features=768, out_features=128, bias=True)
          (1): Tanh()
        )
      )
    )
    (6): BSNet(
      (band_rnn): ResMamba(
        (norm): GroupNorm(1, 128, eps=1.1920928955078125e-07, affine=True)
        (dropout): Dropout(p=0.0, inplace=False)
        (rnn): MambaBlock(
          (forward_mamba2): Mamba2(
            (in_proj): Linear(in_features=128, out_features=1288, bias=False)
            (conv1d): Conv1d(768, 768, kernel_size=(4,), stride=(1,), padding=(3,), groups=768)
            (norm): RMSNorm()
            (out_proj): Linear(in_features=512, out_features=128, bias=False)
          )
          (backward_mamba2): Mamba2(
            (in_proj): Linear(in_features=128, out_features=1288, bias=False)
            (conv1d): Conv1d(768, 768, kernel_size=(4,), stride=(1,), padding=(3,), groups=768)
            (norm): RMSNorm()
            (out_proj): Linear(in_features=512, out_features=128, bias=False)
          )
        )
        (proj): Linear(in_features=256, out_features=128, bias=True)
      )
      (band_comm): ResMamba(
        (norm): GroupNorm(1, 128, eps=1.1920928955078125e-07, affine=True)
        (dropout): Dropout(p=0.0, inplace=False)
        (rnn): MambaBlock(
          (forward_mamba2): Mamba2(
            (in_proj): Linear(in_features=128, out_features=1288, bias=False)
            (conv1d): Conv1d(768, 768, kernel_size=(4,), stride=(1,), padding=(3,), groups=768)
            (norm): RMSNorm()
            (out_proj): Linear(in_features=512, out_features=128, bias=False)
          )
          (backward_mamba2): Mamba2(
            (in_proj): Linear(in_features=128, out_features=1288, bias=False)
            (conv1d): Conv1d(768, 768, kernel_size=(4,), stride=(1,), padding=(3,), groups=768)
            (norm): RMSNorm()
            (out_proj): Linear(in_features=512, out_features=128, bias=False)
          )
        )
        (proj): Linear(in_features=256, out_features=128, bias=True)
      )
      (channel_comm): TAC(
        (input_norm): GroupNorm(1, 128, eps=1.1920928955078125e-07, affine=True)
        (TAC_input): Sequential(
          (0): Linear(in_features=128, out_features=384, bias=True)
          (1): Tanh()
        )
        (TAC_mean): Sequential(
          (0): Linear(in_features=384, out_features=384, bias=True)
          (1): Tanh()
        )
        (TAC_output): Sequential(
          (0): Linear(in_features=768, out_features=128, bias=True)
          (1): Tanh()
        )
      )
    )
    (7): BSNet(
      (band_rnn): ResMamba(
        (norm): GroupNorm(1, 128, eps=1.1920928955078125e-07, affine=True)
        (dropout): Dropout(p=0.0, inplace=False)
        (rnn): MambaBlock(
          (forward_mamba2): Mamba2(
            (in_proj): Linear(in_features=128, out_features=1288, bias=False)
            (conv1d): Conv1d(768, 768, kernel_size=(4,), stride=(1,), padding=(3,), groups=768)
            (norm): RMSNorm()
            (out_proj): Linear(in_features=512, out_features=128, bias=False)
          )
          (backward_mamba2): Mamba2(
            (in_proj): Linear(in_features=128, out_features=1288, bias=False)
            (conv1d): Conv1d(768, 768, kernel_size=(4,), stride=(1,), padding=(3,), groups=768)
            (norm): RMSNorm()
            (out_proj): Linear(in_features=512, out_features=128, bias=False)
          )
        )
        (proj): Linear(in_features=256, out_features=128, bias=True)
      )
      (band_comm): ResMamba(
        (norm): GroupNorm(1, 128, eps=1.1920928955078125e-07, affine=True)
        (dropout): Dropout(p=0.0, inplace=False)
        (rnn): MambaBlock(
          (forward_mamba2): Mamba2(
            (in_proj): Linear(in_features=128, out_features=1288, bias=False)
            (conv1d): Conv1d(768, 768, kernel_size=(4,), stride=(1,), padding=(3,), groups=768)
            (norm): RMSNorm()
            (out_proj): Linear(in_features=512, out_features=128, bias=False)
          )
          (backward_mamba2): Mamba2(
            (in_proj): Linear(in_features=128, out_features=1288, bias=False)
            (conv1d): Conv1d(768, 768, kernel_size=(4,), stride=(1,), padding=(3,), groups=768)
            (norm): RMSNorm()
            (out_proj): Linear(in_features=512, out_features=128, bias=False)
          )
        )
        (proj): Linear(in_features=256, out_features=128, bias=True)
      )
      (channel_comm): TAC(
        (input_norm): GroupNorm(1, 128, eps=1.1920928955078125e-07, affine=True)
        (TAC_input): Sequential(
          (0): Linear(in_features=128, out_features=384, bias=True)
          (1): Tanh()
        )
        (TAC_mean): Sequential(
          (0): Linear(in_features=384, out_features=384, bias=True)
          (1): Tanh()
        )
        (TAC_output): Sequential(
          (0): Linear(in_features=768, out_features=128, bias=True)
          (1): Tanh()
        )
      )
    )
  )
  (separator_map): Sequential(
    (0): BSNet(
      (band_rnn): ResMamba(
        (norm): GroupNorm(1, 128, eps=1.1920928955078125e-07, affine=True)
        (dropout): Dropout(p=0.0, inplace=False)
        (rnn): MambaBlock(
          (forward_mamba2): Mamba2(
            (in_proj): Linear(in_features=128, out_features=1288, bias=False)
            (conv1d): Conv1d(768, 768, kernel_size=(4,), stride=(1,), padding=(3,), groups=768)
            (norm): RMSNorm()
            (out_proj): Linear(in_features=512, out_features=128, bias=False)
          )
          (backward_mamba2): Mamba2(
            (in_proj): Linear(in_features=128, out_features=1288, bias=False)
            (conv1d): Conv1d(768, 768, kernel_size=(4,), stride=(1,), padding=(3,), groups=768)
            (norm): RMSNorm()
            (out_proj): Linear(in_features=512, out_features=128, bias=False)
          )
        )
        (proj): Linear(in_features=256, out_features=128, bias=True)
      )
      (band_comm): ResMamba(
        (norm): GroupNorm(1, 128, eps=1.1920928955078125e-07, affine=True)
        (dropout): Dropout(p=0.0, inplace=False)
        (rnn): MambaBlock(
          (forward_mamba2): Mamba2(
            (in_proj): Linear(in_features=128, out_features=1288, bias=False)
            (conv1d): Conv1d(768, 768, kernel_size=(4,), stride=(1,), padding=(3,), groups=768)
            (norm): RMSNorm()
            (out_proj): Linear(in_features=512, out_features=128, bias=False)
          )
          (backward_mamba2): Mamba2(
            (in_proj): Linear(in_features=128, out_features=1288, bias=False)
            (conv1d): Conv1d(768, 768, kernel_size=(4,), stride=(1,), padding=(3,), groups=768)
            (norm): RMSNorm()
            (out_proj): Linear(in_features=512, out_features=128, bias=False)
          )
        )
        (proj): Linear(in_features=256, out_features=128, bias=True)
      )
      (channel_comm): TAC(
        (input_norm): GroupNorm(1, 128, eps=1.1920928955078125e-07, affine=True)
        (TAC_input): Sequential(
          (0): Linear(in_features=128, out_features=384, bias=True)
          (1): Tanh()
        )
        (TAC_mean): Sequential(
          (0): Linear(in_features=384, out_features=384, bias=True)
          (1): Tanh()
        )
        (TAC_output): Sequential(
          (0): Linear(in_features=768, out_features=128, bias=True)
          (1): Tanh()
        )
      )
    )
    (1): BSNet(
      (band_rnn): ResMamba(
        (norm): GroupNorm(1, 128, eps=1.1920928955078125e-07, affine=True)
        (dropout): Dropout(p=0.0, inplace=False)
        (rnn): MambaBlock(
          (forward_mamba2): Mamba2(
            (in_proj): Linear(in_features=128, out_features=1288, bias=False)
            (conv1d): Conv1d(768, 768, kernel_size=(4,), stride=(1,), padding=(3,), groups=768)
            (norm): RMSNorm()
            (out_proj): Linear(in_features=512, out_features=128, bias=False)
          )
          (backward_mamba2): Mamba2(
            (in_proj): Linear(in_features=128, out_features=1288, bias=False)
            (conv1d): Conv1d(768, 768, kernel_size=(4,), stride=(1,), padding=(3,), groups=768)
            (norm): RMSNorm()
            (out_proj): Linear(in_features=512, out_features=128, bias=False)
          )
        )
        (proj): Linear(in_features=256, out_features=128, bias=True)
      )
      (band_comm): ResMamba(
        (norm): GroupNorm(1, 128, eps=1.1920928955078125e-07, affine=True)
        (dropout): Dropout(p=0.0, inplace=False)
        (rnn): MambaBlock(
          (forward_mamba2): Mamba2(
            (in_proj): Linear(in_features=128, out_features=1288, bias=False)
            (conv1d): Conv1d(768, 768, kernel_size=(4,), stride=(1,), padding=(3,), groups=768)
            (norm): RMSNorm()
            (out_proj): Linear(in_features=512, out_features=128, bias=False)
          )
          (backward_mamba2): Mamba2(
            (in_proj): Linear(in_features=128, out_features=1288, bias=False)
            (conv1d): Conv1d(768, 768, kernel_size=(4,), stride=(1,), padding=(3,), groups=768)
            (norm): RMSNorm()
            (out_proj): Linear(in_features=512, out_features=128, bias=False)
          )
        )
        (proj): Linear(in_features=256, out_features=128, bias=True)
      )
      (channel_comm): TAC(
        (input_norm): GroupNorm(1, 128, eps=1.1920928955078125e-07, affine=True)
        (TAC_input): Sequential(
          (0): Linear(in_features=128, out_features=384, bias=True)
          (1): Tanh()
        )
        (TAC_mean): Sequential(
          (0): Linear(in_features=384, out_features=384, bias=True)
          (1): Tanh()
        )
        (TAC_output): Sequential(
          (0): Linear(in_features=768, out_features=128, bias=True)
          (1): Tanh()
        )
      )
    )
    (2): BSNet(
      (band_rnn): ResMamba(
        (norm): GroupNorm(1, 128, eps=1.1920928955078125e-07, affine=True)
        (dropout): Dropout(p=0.0, inplace=False)
        (rnn): MambaBlock(
          (forward_mamba2): Mamba2(
            (in_proj): Linear(in_features=128, out_features=1288, bias=False)
            (conv1d): Conv1d(768, 768, kernel_size=(4,), stride=(1,), padding=(3,), groups=768)
            (norm): RMSNorm()
            (out_proj): Linear(in_features=512, out_features=128, bias=False)
          )
          (backward_mamba2): Mamba2(
            (in_proj): Linear(in_features=128, out_features=1288, bias=False)
            (conv1d): Conv1d(768, 768, kernel_size=(4,), stride=(1,), padding=(3,), groups=768)
            (norm): RMSNorm()
            (out_proj): Linear(in_features=512, out_features=128, bias=False)
          )
        )
        (proj): Linear(in_features=256, out_features=128, bias=True)
      )
      (band_comm): ResMamba(
        (norm): GroupNorm(1, 128, eps=1.1920928955078125e-07, affine=True)
        (dropout): Dropout(p=0.0, inplace=False)
        (rnn): MambaBlock(
          (forward_mamba2): Mamba2(
            (in_proj): Linear(in_features=128, out_features=1288, bias=False)
            (conv1d): Conv1d(768, 768, kernel_size=(4,), stride=(1,), padding=(3,), groups=768)
            (norm): RMSNorm()
            (out_proj): Linear(in_features=512, out_features=128, bias=False)
          )
          (backward_mamba2): Mamba2(
            (in_proj): Linear(in_features=128, out_features=1288, bias=False)
            (conv1d): Conv1d(768, 768, kernel_size=(4,), stride=(1,), padding=(3,), groups=768)
            (norm): RMSNorm()
            (out_proj): Linear(in_features=512, out_features=128, bias=False)
          )
        )
        (proj): Linear(in_features=256, out_features=128, bias=True)
      )
      (channel_comm): TAC(
        (input_norm): GroupNorm(1, 128, eps=1.1920928955078125e-07, affine=True)
        (TAC_input): Sequential(
          (0): Linear(in_features=128, out_features=384, bias=True)
          (1): Tanh()
        )
        (TAC_mean): Sequential(
          (0): Linear(in_features=384, out_features=384, bias=True)
          (1): Tanh()
        )
        (TAC_output): Sequential(
          (0): Linear(in_features=768, out_features=128, bias=True)
          (1): Tanh()
        )
      )
    )
    (3): BSNet(
      (band_rnn): ResMamba(
        (norm): GroupNorm(1, 128, eps=1.1920928955078125e-07, affine=True)
        (dropout): Dropout(p=0.0, inplace=False)
        (rnn): MambaBlock(
          (forward_mamba2): Mamba2(
            (in_proj): Linear(in_features=128, out_features=1288, bias=False)
            (conv1d): Conv1d(768, 768, kernel_size=(4,), stride=(1,), padding=(3,), groups=768)
            (norm): RMSNorm()
            (out_proj): Linear(in_features=512, out_features=128, bias=False)
          )
          (backward_mamba2): Mamba2(
            (in_proj): Linear(in_features=128, out_features=1288, bias=False)
            (conv1d): Conv1d(768, 768, kernel_size=(4,), stride=(1,), padding=(3,), groups=768)
            (norm): RMSNorm()
            (out_proj): Linear(in_features=512, out_features=128, bias=False)
          )
        )
        (proj): Linear(in_features=256, out_features=128, bias=True)
      )
      (band_comm): ResMamba(
        (norm): GroupNorm(1, 128, eps=1.1920928955078125e-07, affine=True)
        (dropout): Dropout(p=0.0, inplace=False)
        (rnn): MambaBlock(
          (forward_mamba2): Mamba2(
            (in_proj): Linear(in_features=128, out_features=1288, bias=False)
            (conv1d): Conv1d(768, 768, kernel_size=(4,), stride=(1,), padding=(3,), groups=768)
            (norm): RMSNorm()
            (out_proj): Linear(in_features=512, out_features=128, bias=False)
          )
          (backward_mamba2): Mamba2(
            (in_proj): Linear(in_features=128, out_features=1288, bias=False)
            (conv1d): Conv1d(768, 768, kernel_size=(4,), stride=(1,), padding=(3,), groups=768)
            (norm): RMSNorm()
            (out_proj): Linear(in_features=512, out_features=128, bias=False)
          )
        )
        (proj): Linear(in_features=256, out_features=128, bias=True)
      )
      (channel_comm): TAC(
        (input_norm): GroupNorm(1, 128, eps=1.1920928955078125e-07, affine=True)
        (TAC_input): Sequential(
          (0): Linear(in_features=128, out_features=384, bias=True)
          (1): Tanh()
        )
        (TAC_mean): Sequential(
          (0): Linear(in_features=384, out_features=384, bias=True)
          (1): Tanh()
        )
        (TAC_output): Sequential(
          (0): Linear(in_features=768, out_features=128, bias=True)
          (1): Tanh()
        )
      )
    )
  )
  (in_conv): Conv1d(256, 128, kernel_size=(1,), stride=(1,))
  (Tanh): Tanh()
  (mask): ModuleList(
    (0-19): 20 x Sequential(
      (0): GroupNorm(1, 128, eps=1.1920928955078125e-07, affine=True)
      (1): Conv1d(128, 512, kernel_size=(1,), stride=(1,))
      (2): Tanh()
      (3): Conv1d(512, 512, kernel_size=(1,), stride=(1,), groups=4)
      (4): Tanh()
      (5): Conv1d(512, 32, kernel_size=(1,), stride=(1,), groups=4)
    )
    (20-29): 10 x Sequential(
      (0): GroupNorm(1, 128, eps=1.1920928955078125e-07, affine=True)
      (1): Conv1d(128, 512, kernel_size=(1,), stride=(1,))
      (2): Tanh()
      (3): Conv1d(512, 512, kernel_size=(1,), stride=(1,), groups=4)
      (4): Tanh()
      (5): Conv1d(512, 64, kernel_size=(1,), stride=(1,), groups=4)
    )
    (30-37): 8 x Sequential(
      (0): GroupNorm(1, 128, eps=1.1920928955078125e-07, affine=True)
      (1): Conv1d(128, 512, kernel_size=(1,), stride=(1,))
      (2): Tanh()
      (3): Conv1d(512, 512, kernel_size=(1,), stride=(1,), groups=4)
      (4): Tanh()
      (5): Conv1d(512, 176, kernel_size=(1,), stride=(1,), groups=4)
    )
    (38-45): 8 x Sequential(
      (0): GroupNorm(1, 128, eps=1.1920928955078125e-07, affine=True)
      (1): Conv1d(128, 512, kernel_size=(1,), stride=(1,))
      (2): Tanh()
      (3): Conv1d(512, 512, kernel_size=(1,), stride=(1,), groups=4)
      (4): Tanh()
      (5): Conv1d(512, 368, kernel_size=(1,), stride=(1,), groups=4)
    )
    (46-53): 8 x Sequential(
      (0): GroupNorm(1, 128, eps=1.1920928955078125e-07, affine=True)
      (1): Conv1d(128, 512, kernel_size=(1,), stride=(1,))
      (2): Tanh()
      (3): Conv1d(512, 512, kernel_size=(1,), stride=(1,), groups=4)
      (4): Tanh()
      (5): Conv1d(512, 736, kernel_size=(1,), stride=(1,), groups=4)
    )
    (54-55): 2 x Sequential(
      (0): GroupNorm(1, 128, eps=1.1920928955078125e-07, affine=True)
      (1): Conv1d(128, 512, kernel_size=(1,), stride=(1,))
      (2): Tanh()
      (3): Conv1d(512, 512, kernel_size=(1,), stride=(1,), groups=4)
      (4): Tanh()
      (5): Conv1d(512, 1472, kernel_size=(1,), stride=(1,), groups=4)
    )
    (56): Sequential(
      (0): GroupNorm(1, 128, eps=1.1920928955078125e-07, affine=True)
      (1): Conv1d(128, 512, kernel_size=(1,), stride=(1,))
      (2): Tanh()
      (3): Conv1d(512, 512, kernel_size=(1,), stride=(1,), groups=4)
      (4): Tanh()
      (5): Conv1d(512, 1936, kernel_size=(1,), stride=(1,), groups=4)
    )
  )
  (map): ModuleList(
    (0-19): 20 x Sequential(
      (0): GroupNorm(1, 128, eps=1.1920928955078125e-07, affine=True)
      (1): Conv1d(128, 512, kernel_size=(1,), stride=(1,))
      (2): Tanh()
      (3): Conv1d(512, 512, kernel_size=(1,), stride=(1,), groups=4)
      (4): Tanh()
      (5): Conv1d(512, 32, kernel_size=(1,), stride=(1,), groups=4)
    )
    (20-29): 10 x Sequential(
      (0): GroupNorm(1, 128, eps=1.1920928955078125e-07, affine=True)
      (1): Conv1d(128, 512, kernel_size=(1,), stride=(1,))
      (2): Tanh()
      (3): Conv1d(512, 512, kernel_size=(1,), stride=(1,), groups=4)
      (4): Tanh()
      (5): Conv1d(512, 64, kernel_size=(1,), stride=(1,), groups=4)
    )
    (30-37): 8 x Sequential(
      (0): GroupNorm(1, 128, eps=1.1920928955078125e-07, affine=True)
      (1): Conv1d(128, 512, kernel_size=(1,), stride=(1,))
      (2): Tanh()
      (3): Conv1d(512, 512, kernel_size=(1,), stride=(1,), groups=4)
      (4): Tanh()
      (5): Conv1d(512, 176, kernel_size=(1,), stride=(1,), groups=4)
    )
    (38-45): 8 x Sequential(
      (0): GroupNorm(1, 128, eps=1.1920928955078125e-07, affine=True)
      (1): Conv1d(128, 512, kernel_size=(1,), stride=(1,))
      (2): Tanh()
      (3): Conv1d(512, 512, kernel_size=(1,), stride=(1,), groups=4)
      (4): Tanh()
      (5): Conv1d(512, 368, kernel_size=(1,), stride=(1,), groups=4)
    )
    (46-53): 8 x Sequential(
      (0): GroupNorm(1, 128, eps=1.1920928955078125e-07, affine=True)
      (1): Conv1d(128, 512, kernel_size=(1,), stride=(1,))
      (2): Tanh()
      (3): Conv1d(512, 512, kernel_size=(1,), stride=(1,), groups=4)
      (4): Tanh()
      (5): Conv1d(512, 736, kernel_size=(1,), stride=(1,), groups=4)
    )
    (54-55): 2 x Sequential(
      (0): GroupNorm(1, 128, eps=1.1920928955078125e-07, affine=True)
      (1): Conv1d(128, 512, kernel_size=(1,), stride=(1,))
      (2): Tanh()
      (3): Conv1d(512, 512, kernel_size=(1,), stride=(1,), groups=4)
      (4): Tanh()
      (5): Conv1d(512, 1472, kernel_size=(1,), stride=(1,), groups=4)
    )
    (56): Sequential(
      (0): GroupNorm(1, 128, eps=1.1920928955078125e-07, affine=True)
      (1): Conv1d(128, 512, kernel_size=(1,), stride=(1,))
      (2): Tanh()
      (3): Conv1d(512, 512, kernel_size=(1,), stride=(1,), groups=4)
      (4): Tanh()
      (5): Conv1d(512, 1936, kernel_size=(1,), stride=(1,), groups=4)
    )
  )
)
Instruments: ['drums', 'bass', 'other', 'vocals']
Metrics for training: ['sdr']. Metric for scheduler: sdr
Patience: 2 Reduce factor: 0.95
Batch size: 2 Grad accum steps: 1 Effective batch size: 2
Dataset type: 1
Optimizer: prodigy
Train for: 1000 epochs
Train epoch: 0 Learning rate: 1.0
  0%|          | 0/1000 [00:00<?, ?it/s]  0%|          | 0/1000 [00:10<?, ?it/s]
…
