…
  0%|          | 0/86 [00:00<?, ?it/s]  1%|          | 1/86 [01:10<1:40:32, 70.97s/it]  2%|▏         | 2/86 [02:13<1:32:24, 66.01s/it] 10%|█         | 9/86 [02:47<17:37, 13.73s/it]   17%|█▋        | 15/86 [02:53<08:35,  7.27s/it] 19%|█▊        | 16/86 [03:13<09:59,  8.57s/it] 22%|██▏       | 19/86 [03:20<07:23,  6.62s/it] 23%|██▎       | 20/86 [03:23<06:43,  6.11s/it] 27%|██▋       | 23/86 [04:03<09:08,  8.71s/it] 71%|███████   | 61/86 [04:07<00:31,  1.26s/it] 73%|███████▎  | 63/86 [04:10<00:28,  1.26s/it] 76%|███████▌  | 65/86 [04:21<00:33,  1.60s/it]100%|██████████| 86/86 [04:21<00:00,  3.04s/it]
Found tracks in dataset: 86
SCNet(
  (encoder): ModuleList(
    (0): SDblock(
      (SDlayer): SDlayer(
        (convs): ModuleList(
          (0): Conv2d(4, 32, kernel_size=(3, 1), stride=(1, 1))
          (1): Conv2d(4, 32, kernel_size=(4, 1), stride=(4, 1))
          (2): Conv2d(4, 32, kernel_size=(16, 1), stride=(16, 1))
        )
      )
      (conv_modules): ModuleList(
        (0): ConvolutionModule(
          (layers): ModuleList(
            (0-2): 3 x Sequential(
              (0): GroupNorm(1, 32, eps=1e-05, affine=True)
              (1): Conv1d(32, 16, kernel_size=(3,), stride=(1,), padding=(1,))
              (2): GLU(dim=1)
              (3): Conv1d(8, 8, kernel_size=(3,), stride=(1,), padding=(1,), groups=8)
              (4): GroupNorm(1, 8, eps=1e-05, affine=True)
              (5): Swish()
              (6): Conv1d(8, 32, kernel_size=(1,), stride=(1,))
            )
          )
        )
        (1): ConvolutionModule(
          (layers): ModuleList(
            (0-1): 2 x Sequential(
              (0): GroupNorm(1, 32, eps=1e-05, affine=True)
              (1): Conv1d(32, 16, kernel_size=(3,), stride=(1,), padding=(1,))
              (2): GLU(dim=1)
              (3): Conv1d(8, 8, kernel_size=(3,), stride=(1,), padding=(1,), groups=8)
              (4): GroupNorm(1, 8, eps=1e-05, affine=True)
              (5): Swish()
              (6): Conv1d(8, 32, kernel_size=(1,), stride=(1,))
            )
          )
        )
        (2): ConvolutionModule(
          (layers): ModuleList(
            (0): Sequential(
              (0): GroupNorm(1, 32, eps=1e-05, affine=True)
              (1): Conv1d(32, 16, kernel_size=(3,), stride=(1,), padding=(1,))
              (2): GLU(dim=1)
              (3): Conv1d(8, 8, kernel_size=(3,), stride=(1,), padding=(1,), groups=8)
              (4): GroupNorm(1, 8, eps=1e-05, affine=True)
              (5): Swish()
              (6): Conv1d(8, 32, kernel_size=(1,), stride=(1,))
            )
          )
        )
      )
      (globalconv): Conv2d(32, 32, kernel_size=(3, 3), stride=(1, 1), padding=(1, 1))
    )
    (1): SDblock(
      (SDlayer): SDlayer(
        (convs): ModuleList(
          (0): Conv2d(32, 64, kernel_size=(3, 1), stride=(1, 1))
          (1): Conv2d(32, 64, kernel_size=(4, 1), stride=(4, 1))
          (2): Conv2d(32, 64, kernel_size=(16, 1), stride=(16, 1))
        )
      )
      (conv_modules): ModuleList(
        (0): ConvolutionModule(
          (layers): ModuleList(
            (0-2): 3 x Sequential(
              (0): GroupNorm(1, 64, eps=1e-05, affine=True)
              (1): Conv1d(64, 32, kernel_size=(3,), stride=(1,), padding=(1,))
              (2): GLU(dim=1)
              (3): Conv1d(16, 16, kernel_size=(3,), stride=(1,), padding=(1,), groups=16)
              (4): GroupNorm(1, 16, eps=1e-05, affine=True)
              (5): Swish()
              (6): Conv1d(16, 64, kernel_size=(1,), stride=(1,))
            )
          )
        )
        (1): ConvolutionModule(
          (layers): ModuleList(
            (0-1): 2 x Sequential(
              (0): GroupNorm(1, 64, eps=1e-05, affine=True)
              (1): Conv1d(64, 32, kernel_size=(3,), stride=(1,), padding=(1,))
              (2): GLU(dim=1)
              (3): Conv1d(16, 16, kernel_size=(3,), stride=(1,), padding=(1,), groups=16)
              (4): GroupNorm(1, 16, eps=1e-05, affine=True)
              (5): Swish()
              (6): Conv1d(16, 64, kernel_size=(1,), stride=(1,))
            )
          )
        )
        (2): ConvolutionModule(
          (layers): ModuleList(
            (0): Sequential(
              (0): GroupNorm(1, 64, eps=1e-05, affine=True)
              (1): Conv1d(64, 32, kernel_size=(3,), stride=(1,), padding=(1,))
              (2): GLU(dim=1)
              (3): Conv1d(16, 16, kernel_size=(3,), stride=(1,), padding=(1,), groups=16)
              (4): GroupNorm(1, 16, eps=1e-05, affine=True)
              (5): Swish()
              (6): Conv1d(16, 64, kernel_size=(1,), stride=(1,))
            )
          )
        )
      )
      (globalconv): Conv2d(64, 64, kernel_size=(3, 3), stride=(1, 1), padding=(1, 1))
    )
    (2): SDblock(
      (SDlayer): SDlayer(
        (convs): ModuleList(
          (0): Conv2d(64, 128, kernel_size=(3, 1), stride=(1, 1))
          (1): Conv2d(64, 128, kernel_size=(4, 1), stride=(4, 1))
          (2): Conv2d(64, 128, kernel_size=(16, 1), stride=(16, 1))
        )
      )
      (conv_modules): ModuleList(
        (0): ConvolutionModule(
          (layers): ModuleList(
            (0-2): 3 x Sequential(
              (0): GroupNorm(1, 128, eps=1e-05, affine=True)
              (1): Conv1d(128, 64, kernel_size=(3,), stride=(1,), padding=(1,))
              (2): GLU(dim=1)
              (3): Conv1d(32, 32, kernel_size=(3,), stride=(1,), padding=(1,), groups=32)
              (4): GroupNorm(1, 32, eps=1e-05, affine=True)
              (5): Swish()
              (6): Conv1d(32, 128, kernel_size=(1,), stride=(1,))
            )
          )
        )
        (1): ConvolutionModule(
          (layers): ModuleList(
            (0-1): 2 x Sequential(
              (0): GroupNorm(1, 128, eps=1e-05, affine=True)
              (1): Conv1d(128, 64, kernel_size=(3,), stride=(1,), padding=(1,))
              (2): GLU(dim=1)
              (3): Conv1d(32, 32, kernel_size=(3,), stride=(1,), padding=(1,), groups=32)
              (4): GroupNorm(1, 32, eps=1e-05, affine=True)
              (5): Swish()
              (6): Conv1d(32, 128, kernel_size=(1,), stride=(1,))
            )
          )
        )
        (2): ConvolutionModule(
          (layers): ModuleList(
            (0): Sequential(
              (0): GroupNorm(1, 128, eps=1e-05, affine=True)
              (1): Conv1d(128, 64, kernel_size=(3,), stride=(1,), padding=(1,))
              (2): GLU(dim=1)
              (3): Conv1d(32, 32, kernel_size=(3,), stride=(1,), padding=(1,), groups=32)
              (4): GroupNorm(1, 32, eps=1e-05, affine=True)
              (5): Swish()
              (6): Conv1d(32, 128, kernel_size=(1,), stride=(1,))
            )
          )
        )
      )
      (globalconv): Conv2d(128, 128, kernel_size=(3, 3), stride=(1, 1), padding=(1, 1))
    )
  )
  (decoder): ModuleList(
    (0): Sequential(
      (0): FusionLayer(
        (conv): Conv2d(256, 256, kernel_size=(3, 3), stride=(1, 1), padding=(1, 1))
      )
      (1): SUlayer(
        (convtrs): ModuleList(
          (0): ConvTranspose2d(128, 64, kernel_size=(3, 1), stride=(1, 1))
          (1): ConvTranspose2d(128, 64, kernel_size=(4, 1), stride=(4, 1))
          (2): ConvTranspose2d(128, 64, kernel_size=(16, 1), stride=(16, 1))
        )
      )
    )
    (1): Sequential(
      (0): FusionLayer(
        (conv): Conv2d(128, 128, kernel_size=(3, 3), stride=(1, 1), padding=(1, 1))
      )
      (1): SUlayer(
        (convtrs): ModuleList(
          (0): ConvTranspose2d(64, 32, kernel_size=(3, 1), stride=(1, 1))
          (1): ConvTranspose2d(64, 32, kernel_size=(4, 1), stride=(4, 1))
          (2): ConvTranspose2d(64, 32, kernel_size=(16, 1), stride=(16, 1))
        )
      )
    )
    (2): Sequential(
      (0): FusionLayer(
        (conv): Conv2d(64, 64, kernel_size=(3, 3), stride=(1, 1), padding=(1, 1))
      )
      (1): SUlayer(
        (convtrs): ModuleList(
          (0): ConvTranspose2d(32, 16, kernel_size=(3, 1), stride=(1, 1))
          (1): ConvTranspose2d(32, 16, kernel_size=(4, 1), stride=(4, 1))
          (2): ConvTranspose2d(32, 16, kernel_size=(16, 1), stride=(16, 1))
        )
      )
    )
  )
  (separation_net): SeparationNet(
    (dp_modules): ModuleList(
      (0): DualPathRNN(
        (lstm_layers): ModuleList(
          (0-1): 2 x LSTM(128, 128, batch_first=True, bidirectional=True)
        )
        (linear_layers): ModuleList(
          (0-1): 2 x Linear(in_features=256, out_features=128, bias=True)
        )
…
